model.pt (torch, 3264 bytes, 4 tensors)

weight f4 [16, 4]
000000 9b 4d 33 be 9a 48 05 bf 32 d3 c2 bf 0e fe c5 bf
       -0.17510073 -0.52063906 -1.5220702 -1.5468156
000010 7b 98 cd bc 22 6e 41 bc 71 86 24 be 1c 02 94 bd
       -0.025097122 -0.011806043 -0.1606691 -0.07226965
000020 d5 ce 76 3e aa 78 ad 3e db 64 25 40 45 4d ae 3f
       0.24102338 0.33881122 2.5842807 1.3617331
000030 fe f9 0e bf 26 38 57 3d 21 96 77 bf 65 4c 15 bf
       -0.5585021 0.05254378 -0.96713454 -0.58319694
000040 c4 c1 db 3c ba 3d 02 be e6 04 08 bd b2 39 df be
       0.026825793 -0.1271886 -0.033207797 -0.43598706
000050 68 e6 5a 3e 5c 47 02 3f 2b 92 16 40 f7 65 af 3f
       0.21376956 0.50890136 2.3526714 1.3702992
000060 d0 ca 57 be ce c0 34 b9 63 ee 00 c0 09 b5 96 bf
       -0.2107346 -0.00017237963 -2.01455 -1.1773998
000070 b2 27 ed bd 08 ce dc be b3 aa 0e bf ed b5 9a be
       -0.11579837 -0.4312594 -0.55729216 -0.30216923
000080 d0 4e 93 3e 4a a5 8c be c1 5c 93 be c0 99 f7 be
       0.28771067 -0.27469856 -0.28781703 -0.4835949
000090 f7 15 a9 bd 6d 98 ae be e9 6c 2a bf aa c0 29 bf
       -0.082561426 -0.34100667 -0.66572434 -0.6630961
0000a0 54 06 c9 bd 05 93 fb 3d 55 cd 89 3d 22 32 ad 3e
       -0.0981566 0.12283901 0.06728617 0.3382731
0000b0 2f c4 0c be 54 22 29 bd ad 5d 75 bd 84 52 85 3e
       -0.13746713 -0.041292503 -0.05990379 0.26039517
0000c0 fa 5c 79 3e 86 5c dc 3e 55 b5 1b 40 4f e3 c0 3f
       0.24351874 0.4303934 2.4329426 1.5069369
0000d0 9a 0e 9d bd 17 24 16 bf 1f bd 08 c0 a5 d7 c7 bf
       -0.07668801 -0.5864882 -2.136543 -1.5612684
0000e0 ab 6f 6b be 13 35 ed 3d 1e b2 1f bf d2 24 96 3e
       -0.22991817 0.11582389 -0.6238116 0.29324967
0000f0 86 f1 99 3d b6 bd 7c 3d 84 6f 15 40 24 54 8b 3f
       0.0751677 0.06170436 2.3349314 1.0885053

bias f4 [16]
000000 9a 50 a9 3e 0a 02 e5 bd d0 57 13 3f cd ab ff be
       0.33069307 -0.111820295 0.57555866 -0.4993576
000010 01 ee d2 be 5f 0e f2 3e 49 91 bb 3e 2a 39 53 be
       -0.41197208 0.4727659 0.3663428 -0.20627275
000020 04 69 7a be 2f 40 b6 bc 5e 70 ce be ba 46 3c bf
       -0.24454123 -0.022247402 -0.40320104 -0.7354542
000030 85 5e 1f 3f 76 3e bb 3e ad 3f 0f bf d9 21 cf 3e
       0.622536 0.3657109 -0.55956537 0.4045551

weight f4 [2, 16]
000000 ac 14 60 3f e4 25 13 3e ca 52 6f bf 12 c4 5a 3e
       0.8753154 0.14369923 -0.934857 0.21363857
000010 3f 36 72 3e dd 15 5d bf 29 a0 0e 3f e7 f6 78 bc
       0.23653506 -0.86361486 0.55713135 -0.015195585
000020 3c b1 f3 bd f5 2f cf 3d ab cb dc 3d d0 dd d0 bd
       -0.11899039 0.10116569 0.10781034 -0.101985574
000030 c9 d9 91 bf 27 93 4c 3f f9 46 1a 3e 1c 13 6c be
       -1.1394588 0.79912037 0.15066136 -0.23054165
000040 c6 04 38 bf ed bd 98 3c f1 b9 83 3f e9 a4 74 be
       -0.71882284 0.018645251 1.029112 -0.23891033
000050 1d 17 8a 3d 65 97 98 3f cf 1c 57 be 7b 8e 62 be
       0.0674269 1.1921202 -0.21007083 -0.22124664
000060 1e 64 92 bd 04 07 0b be 0d 3d 5a 3c 6d 80 61 3e
       -0.07148002 -0.13576895 0.01332022 0.22021647
000070 d8 0d 93 3f fb 16 77 bf 3c ad d3 3d 91 13 e6 3e
       1.14886 -0.9651944 0.10335776 0.44936803

bias f4 [2]
000000 e8 4d e5 bd fe 55 f2 bd
       -0.111965 -0.11832808
